…
 model.compile(optimizer='adam',loss='mean_absolute_error', metrics=['accuracy']) # model.summary()  lr = 0.000007 epochs = 75 model = super_res_model(X_resized.shape.as_list()[1:], Y.shape[1:]) model.compile(optimizer=Adam(lr=lr),loss='mean_absolute_error', metrics=['accuracy']) model.summary()  Model: \u0026quot;model\u0026quot; __________________________________________________________________________________________________ Layer (type) Output Shape Param # Connected to ================================================================================================== input_1 (InputLayer) [(None, 256, 256, 3) 0 __________________________________________________________________________________________________ conv2d (Conv2D) (None, 256, 256, 64) 1792 input_1[0][0] __________________________________________________________________________________________________ activation (Activation) (None, 256, 256, 64) 0 conv2d[0][0] __________________________________________________________________________________________________ conv2d_1 (Conv2D) (None, 256, 256, 64) 36928 activation[0][0] __________________________________________________________________________________________________ activation_1 (Activation) (None, 256, 256, 64) 0 conv2d_1[0][0] __________________________________________________________________________________________________ conv2d_2 (Conv2D) (None, 256, 256, 64) 36928 activation_1[0][0] __________________________________________________________________________________________________ activation_2 (Activation) (None, 256, 256, 64) 0 conv2d_2[0][0] __________________________________________________________________________________________________ conv2d_3 (Conv2D) (None, 256, 256, 64) 36928 activation_2[0][0] __________________________________________________________________________________________________ activation_3 (Activation) (None, 256, 256, 64) 0 conv2d_3[0][0] __________________________________________________________________________________________________ conv2d_4 (Conv2D) (None, 256, 256, 64) 36928 activation_3[0][0] __________________________________________________________________________________________________ activation_4 (Activation) (None, 256, 256, 64) 0 conv2d_4[0][0] __________________________________________________________________________________________________ conv2d_5 (Conv2D) (None, 256, 256, 64) 36928 activation_4[0][0] __________________________________________________________________________________________________ activation_5 (Activation) (None, 256, 256, 64) 0 conv2d_5[0][0] __________________________________________________________________________________________________ conv2d_6 (Conv2D) (None, 256, 256, 64) 36928 activation_5[0][0] __________________________________________________________________________________________________ activation_6 (Activation) (None, 256, 256, 64) 0 conv2d_6[0][0] __________________________________________________________________________________________________ conv2d_7 (Conv2D) (None, 256, 256, 64) 36928 activation_6[0][0] __________________________________________________________________________________________________ activation_7 (Activation) (None, 256, 256, 64) 0 conv2d_7[0][0] __________________________________________________________________________________________________ conv2d_8 (Conv2D) (None, 256, 256, 64) 36928 activation_7[0][0] __________________________________________________________________________________________________ activation_8 (Activation) (None, 256, 256, 64) 0 conv2d_8[0][0] __________________________________________________________________________________________________ conv2d_9 (Conv2D) (None, 256, 256, 64) 36928 activation_8[0][0] __________________________________________________________________________________________________ activation_9 (Activation) (None, 256, 256, 64) 0 conv2d_9[0][0] __________________________________________________________________________________________________ conv2d_10 (Conv2D) (None, 256, 256, 64) 36928 activation_9[0][0] __________________________________________________________________________________________________ activation_10 (Activation) (None, 256, 256, 64) 0 conv2d_10[0][0] __________________________________________________________________________________________________ conv2d_11 (Conv2D) (None, 256, 256, 64) 36928 activation_10[0][0] __________________________________________________________________________________________________ activation_11 (Activation) (None, 256, 256, 64) 0 conv2d_11[0][0] __________________________________________________________________________________________________ conv2d_12 (Conv2D) (None, 256, 256, 64) 36928 activation_11[0][0] __________________________________________________________________________________________________ activation_12 (Activation) (None, 256, 256, 64) 0 conv2d_12[0][0] __________________________________________________________________________________________________ conv2d_13 (Conv2D) (None, 256, 256, 64) 36928 activation_12[0][0] __________________________________________________________________________________________________ activation_13 (Activation) (None, 256, 256, 64) 0 conv2d_13[0][0] __________________________________________________________________________________________________ conv2d_14 (Conv2D) (None, 256, 256, 64) 36928 activation_13[0][0] __________________________________________________________________________________________________ activation_14 (Activation) (None, 256, 256, 64) 0 conv2d_14[0][0] __________________________________________________________________________________________________ conv2d_15 (Conv2D) (None, 256, 256, 64) 36928 activation_14[0][0] __________________________________________________________________________________________________ activation_15 (Activation) (None, 256, 256, 64) 0 conv2d_15[0][0] __________________________________________________________________________________________________ conv2d_16 (Conv2D) (None, 256, 256, 64) 36928 activation_15[0][0] __________________________________________________________________________________________________ activation_16 (Activation) (None, 256, 256, 64) 0 conv2d_16[0][0] __________________________________________________________________________________________________ conv2d_17 (Conv2D) (None, 256, 256, 64) 36928 activation_16[0][0] __________________________________________________________________________________________________ activation_17 (Activation) (None, 256, 256, 64) 0 conv2d_17[0][0] __________________________________________________________________________________________________ conv2d_18 (Conv2D) (None, 256, 256, 64) 36928 activation_17[0][0] __________________________________________________________________________________________________ activation_18 (Activation) (None, 256, 256, 64) 0 conv2d_18[0][0] __________________________________________________________________________________________________ conv2d_19 (Conv2D) (None, 256, 256, 1) 577 activation_18[0][0] __________________________________________________________________________________________________ add (Add) (None, 256, 256, 3) 0 conv2d_19[0][0] input_1[0][0] ================================================================================================== Total params: 667,073 Trainable params: 667,073 Non-trainable params: 0 __________________________________________________________________________________________________  history = model.fit(X_resized.numpy(),Y,batch_size=1,epochs=60,validation_split=0.10)  model_name 
…
